
============================================================
Training PPO on ALE/Skiing-v5
============================================================

Saving TensorBoard logs to: C:/Pong_part_3/logs
Using cuda device

Model architecture:
ActorCriticCnnPolicy(
  (features_extractor): NatureCNN(
    (cnn): Sequential(
      (0): Conv2d(4, 32, kernel_size=(8, 8), stride=(4, 4))
      (1): ReLU()
      (2): Conv2d(32, 64, kernel_size=(4, 4), stride=(2, 2))
      (3): ReLU()
      (4): Conv2d(64, 64, kernel_size=(3, 3), stride=(1, 1))
      (5): ReLU()
      (6): Flatten(start_dim=1, end_dim=-1)
    )
    (linear): Sequential(
      (0): Linear(in_features=3136, out_features=512, bias=True)
      (1): ReLU()
    )
  )
  (pi_features_extractor): NatureCNN(
    (cnn): Sequential(
      (0): Conv2d(4, 32, kernel_size=(8, 8), stride=(4, 4))
      (1): ReLU()
      (2): Conv2d(32, 64, kernel_size=(4, 4), stride=(2, 2))
      (3): ReLU()
      (4): Conv2d(64, 64, kernel_size=(3, 3), stride=(1, 1))
      (5): ReLU()
      (6): Flatten(start_dim=1, end_dim=-1)
    )
    (linear): Sequential(
      (0): Linear(in_features=3136, out_features=512, bias=True)
      (1): ReLU()
    )
  )
  (vf_features_extractor): NatureCNN(
    (cnn): Sequential(
      (0): Conv2d(4, 32, kernel_size=(8, 8), stride=(4, 4))
      (1): ReLU()
      (2): Conv2d(32, 64, kernel_size=(4, 4), stride=(2, 2))
      (3): ReLU()
      (4): Conv2d(64, 64, kernel_size=(3, 3), stride=(1, 1))
      (5): ReLU()
      (6): Flatten(start_dim=1, end_dim=-1)
    )
    (linear): Sequential(
      (0): Linear(in_features=3136, out_features=512, bias=True)
      (1): ReLU()
    )
  )
  (mlp_extractor): MlpExtractor(
    (policy_net): Sequential()
    (value_net): Sequential()
  )
  (action_net): Linear(in_features=512, out_features=3, bias=True)
  (value_net): Linear(in_features=512, out_features=1, bias=True)
)

Starting training for 10,000,000 timesteps...
This equals 610 updates
Evaluation every 1250 updates
wandb: WARNING Found log directory outside of given root_logdir, dropping given root_logdir for event file in C:/Pong_part_3/logs\PPO_22

Logging to C:/Pong_part_3/logs\PPO_22
C:\Users\Iván\AppData\Local\Programs\Python\Python310\lib\site-packages\stable_baselines3\common\callbacks.py:418: UserWarning: Training and eval env are not of the same type<stable_baselines3.common.vec_env.subproc_vec_env.SubprocVecEnv object at 0x000001255011D2A0> != <stable_baselines3.common.vec_env.dummy_vec_env.DummyVecEnv object at 0x0000012523871960>
…
