
============================================================
Training PPO on ALE/Skiing-v5
============================================================

Using cuda device

Model architecture:
ActorCriticCnnPolicy(
  (features_extractor): NatureCNN(
    (cnn): Sequential(
      (0): Conv2d(4, 32, kernel_size=(8, 8), stride=(4, 4))
      (1): ReLU()
      (2): Conv2d(32, 64, kernel_size=(4, 4), stride=(2, 2))
      (3): ReLU()
      (4): Conv2d(64, 64, kernel_size=(3, 3), stride=(1, 1))
      (5): ReLU()
      (6): Flatten(start_dim=1, end_dim=-1)
    )
    (linear): Sequential(
      (0): Linear(in_features=3136, out_features=512, bias=True)
      (1): ReLU()
    )
  )
  (pi_features_extractor): NatureCNN(
    (cnn): Sequential(
      (0): Conv2d(4, 32, kernel_size=(8, 8), stride=(4, 4))
      (1): ReLU()
      (2): Conv2d(32, 64, kernel_size=(4, 4), stride=(2, 2))
      (3): ReLU()
      (4): Conv2d(64, 64, kernel_size=(3, 3), stride=(1, 1))
      (5): ReLU()
      (6): Flatten(start_dim=1, end_dim=-1)
    )
    (linear): Sequential(
      (0): Linear(in_features=3136, out_features=512, bias=True)
      (1): ReLU()
    )
  )
  (vf_features_extractor): NatureCNN(
    (cnn): Sequential(
      (0): Conv2d(4, 32, kernel_size=(8, 8), stride=(4, 4))
      (1): ReLU()
      (2): Conv2d(32, 64, kernel_size=(4, 4), stride=(2, 2))
      (3): ReLU()
      (4): Conv2d(64, 64, kernel_size=(3, 3), stride=(1, 1))
      (5): ReLU()
      (6): Flatten(start_dim=1, end_dim=-1)
    )
    (linear): Sequential(
      (0): Linear(in_features=3136, out_features=512, bias=True)
      (1): ReLU()
    )
  )
  (mlp_extractor): MlpExtractor(
    (policy_net): Sequential()
    (value_net): Sequential()
  )
  (action_net): Linear(in_features=512, out_features=3, bias=True)
  (value_net): Linear(in_features=512, out_features=1, bias=True)
)

Starting training for 10,000,000 timesteps...
This equals 9,765 updates
Evaluation every 1250 updates
Traceback (most recent call last):
  File "c:\Users\Iván\Desktop\Project-PML-Pong\Project-PML-Pong\Part_3\main_aina.py", line 279, in <module>
    model_path = train_model()
  File "c:\Users\Iván\Desktop\Project-PML-Pong\Project-PML-Pong\Part_3\main_aina.py", line 146, in train_model
…
